(39429, 21, 21, 1) (39429, 1) (3727, 21, 21, 1) (3727, 1)
_________________________________________________________________
Layer (type)                 Output Shape              Param #   
=================================================================
conv2d_1 (Conv2D)            (None, 17, 17, 8)         208       
_________________________________________________________________
activation_1 (Activation)    (None, 17, 17, 8)         0         
_________________________________________________________________
max_pooling2d_1 (MaxPooling2 (None, 8, 8, 8)           0         
_________________________________________________________________
flatten_1 (Flatten)          (None, 512)               0         
_________________________________________________________________
dense_1 (Dense)              (None, 512)               262656    
_________________________________________________________________
batch_normalization_1 (Batch (None, 512)               2048      
_________________________________________________________________
activation_2 (Activation)    (None, 512)               0         
_________________________________________________________________
dropout_1 (Dropout)          (None, 512)               0         
_________________________________________________________________
dense_2 (Dense)              (None, 1)                 513       
_________________________________________________________________
activation_3 (Activation)    (None, 1)                 0         
=================================================================
Total params: 265,425
Trainable params: 264,401
Non-trainable params: 1,024
_________________________________________________________________
Train on 35486 samples, validate on 3943 samples
Epoch 1/200

 4096/35486 [==>...........................] - ETA: 9s - loss: 0.6883 - acc: 0.6233
12288/35486 [=========>....................] - ETA: 2s - loss: 0.6443 - acc: 0.6853
…
